…
[2m[36m(train pid=7726)[0m INFO:root:Model: "model"
[2m[36m(train pid=7726)[0m INFO:root:_________________________________________________________________
[2m[36m(train pid=7726)[0m INFO:root:Layer (type)                 Output Shape              Param #   
[2m[36m(train pid=7726)[0m INFO:root:=================================================================
[2m[36m(train pid=7726)[0m INFO:root:input_1 (InputLayer)         [(None, 2, 315)]          0         
[2m[36m(train pid=7726)[0m INFO:root:_________________________________________________________________
[2m[36m(train pid=7726)[0m INFO:root:rnn_cell_1 (RNN)             (None, 2, 64)             97280     
[2m[36m(train pid=7726)[0m INFO:root:_________________________________________________________________
[2m[36m(train pid=7726)[0m INFO:root:batch_normalization (BatchNo (None, 2, 64)             256       
[2m[36m(train pid=7726)[0m INFO:root:_________________________________________________________________
[2m[36m(train pid=7726)[0m INFO:root:dropout (Dropout)            (None, 2, 64)             0         
[2m[36m(train pid=7726)[0m INFO:root:_________________________________________________________________
[2m[36m(train pid=7726)[0m INFO:root:rnn_cell_2 (RNN)             (None, 2, 64)             33024     
[2m[36m(train pid=7726)[0m INFO:root:_________________________________________________________________
[2m[36m(train pid=7726)[0m INFO:root:batch_normalization_1 (Batch (None, 2, 64)             256       
[2m[36m(train pid=7726)[0m INFO:root:_________________________________________________________________
[2m[36m(train pid=7726)[0m INFO:root:dropout_1 (Dropout)          (None, 2, 64)             0         
[2m[36m(train pid=7726)[0m INFO:root:_________________________________________________________________
[2m[36m(train pid=7726)[0m INFO:root:rnn_cell_3 (RNN)             (None, 2, 64)             33024     
[2m[36m(train pid=7726)[0m INFO:root:_________________________________________________________________
[2m[36m(train pid=7726)[0m INFO:root:batch_normalization_2 (Batch (None, 2, 64)             256       
[2m[36m(train pid=7726)[0m INFO:root:_________________________________________________________________
[2m[36m(train pid=7726)[0m INFO:root:dropout_2 (Dropout)          (None, 2, 64)             0         
[2m[36m(train pid=7726)[0m INFO:root:_________________________________________________________________
[2m[36m(train pid=7726)[0m INFO:root:rnn_cell_4 (RNN)             (None, 2, 64)             33024     
[2m[36m(train pid=7726)[0m INFO:root:_________________________________________________________________
20 more TERMINATED
Trial status: 25 TERMINATED | 2 RUNNING | 1 PENDING
Current time: 2023-11-16 13:07:20. Total running time: 2min 0s
Logical resource usage: 4.0/4 CPUs, 2.0/2 GPUs (0.0/1.0 accelerator_type:G)
+-------------------------------------------------------------------------------------------------------------------------+
…
[2m[36m(train pid=7849)[0m Epoch 12/100
[2m[36m(train pid=7726)[0m 1000/1000 - 23s - loss: 7.0964 - NASA_score: 0.0614 - Score: 0.3943 - MAE: 0.5923 - val_loss: 6.8661 - val_NASA_score: 0.0550 - val_Score: 0.3266 - val_MAE: 0.5316 - lr: 2.5412e-04
[2m[36m(train pid=7726)[0m Epoch 9/100
[2m[36m(train pid=7849)[0m 1000/1000 - 16s - loss: 5.4789 - NASA_score: 0.0558 - Score: 0.3319 - MAE: 0.5448 - val_loss: 5.2942 - val_NASA_score: 0.0548 - val_Score: 0.3258 - val_MAE: 0.5298 - lr: 6.4175e-05
[2m[36m(train pid=7849)[0m Epoch 13/100
[2m[36m(train pid=7726)[0m INFO:root:batch_normalization_3 (Batch (None, 2, 64)             256       
[2m[36m(train pid=7726)[0m INFO:root:_________________________________________________________________
[2m[36m(train pid=7726)[0m INFO:root:dropout_3 (Dropout)          (None, 2, 64)             0         
[2m[36m(train pid=7726)[0m INFO:root:_________________________________________________________________
[2m[36m(train pid=7726)[0m INFO:root:self_attention (SelfAttentio (None, 64)                66        
[2m[36m(train pid=7726)[0m INFO:root:_________________________________________________________________
[2m[36m(train pid=7726)[0m INFO:root:dropout_4 (Dropout)          (None, 64)                0         
[2m[36m(train pid=7726)[0m INFO:root:_________________________________________________________________
[2m[36m(train pid=7726)[0m INFO:root:flatten (Flatten)            (None, 64)                0         
[2m[36m(train pid=7726)[0m INFO:root:_________________________________________________________________
[2m[36m(train pid=7726)[0m INFO:root:dense (Dense)                (None, 158)               10270     
[2m[36m(train pid=7726)[0m INFO:root:_________________________________________________________________
[2m[36m(train pid=7726)[0m INFO:root:activation (Activation)      (None, 158)               0         
[2m[36m(train pid=7726)[0m INFO:root:_________________________________________________________________
[2m[36m(train pid=7726)[0m INFO:root:dropout_5 (Dropout)          (None, 158)               0         
[2m[36m(train pid=7726)[0m INFO:root:_________________________________________________________________
[2m[36m(train pid=7726)[0m INFO:root:dense_1 (Dense)              (None, 100)               15900     
[2m[36m(train pid=7726)[0m INFO:root:_________________________________________________________________
[2m[36m(train pid=7726)[0m INFO:root:activation_1 (Activation)    (None, 100)               0         
[2m[36m(train pid=7726)[0m INFO:root:_________________________________________________________________
[2m[36m(train pid=7726)[0m INFO:root:dropout_6 (Dropout)          (None, 100)               0         
[2m[36m(train pid=7726)[0m INFO:root:_________________________________________________________________
[2m[36m(train pid=7726)[0m INFO:root:predictions (Dense)          (None, 1)                 101       
[2m[36m(train pid=7726)[0m INFO:root:=================================================================
[2m[36m(train pid=7726)[0m INFO:root:Total params: 223,713
[2m[36m(train pid=7726)[0m INFO:root:Trainable params: 223,201
[2m[36m(train pid=7726)[0m INFO:root:Non-trainable params: 512
[2m[36m(train pid=7726)[0m INFO:root:_________________________________________________________________
…
[2m[36m(train pid=7849)[0m INFO:root:Model: "model"
[2m[36m(train pid=7849)[0m INFO:root:_________________________________________________________________[32m [repeated 24x across cluster][0m
[2m[36m(train pid=7849)[0m INFO:root:Layer (type)                 Output Shape              Param #   
[2m[36m(train pid=7849)[0m INFO:root:=================================================================[32m [repeated 2x across cluster][0m
[2m[36m(train pid=7849)[0m INFO:root:input_1 (InputLayer)         [(None, 2, 305)]          0         
[2m[36m(train pid=7849)[0m INFO:root:rnn_cell_4 (RNN)             (None, 2, 64)             24960     [32m [repeated 4x across cluster][0m
[2m[36m(train pid=7849)[0m INFO:root:batch_normalization (BatchNo (None, 2, 64)             256       
[2m[36m(train pid=7849)[0m INFO:root:dropout (Dropout)            (None, 2, 64)             0         
[2m[36m(train pid=7849)[0m INFO:root:batch_normalization_3 (Batch (None, 2, 64)             256       [32m [repeated 3x across cluster][0m
[2m[36m(train pid=7849)[0m INFO:root:dropout_6 (Dropout)          (None, 100)               0         [32m [repeated 6x across cluster][0m
[2m[36m(train pid=7849)[0m INFO:root:self_attention (SelfAttentio (None, 64)                66        
[2m[36m(train pid=7849)[0m INFO:root:flatten (Flatten)            (None, 64)                0         
[2m[36m(train pid=7849)[0m INFO:root:dense (Dense)                (None, 167)               10855     
[2m[36m(train pid=7849)[0m INFO:root:activation (Activation)      (None, 167)               0         
[2m[36m(train pid=7849)[0m INFO:root:dense_1 (Dense)              (None, 100)               16800     
[2m[36m(train pid=7849)[0m INFO:root:activation_1 (Activation)    (None, 100)               0         
[2m[36m(train pid=7849)[0m INFO:root:predictions (Dense)          (None, 1)                 101       
[2m[36m(train pid=7849)[0m INFO:root:Total params: 174,958
[2m[36m(train pid=7849)[0m INFO:root:Trainable params: 174,446
[2m[36m(train pid=7849)[0m INFO:root:Non-trainable params: 512
[2m[36m(train pid=7849)[0m INFO:root:Started training
[2m[36m(train pid=7726)[0m INFO:root:Starting training (fold 1) {'net': 'rnn', 'extra_channel': False, 'epochs': 100, 'fc2': 100, 'kernels
…
[2m[36m(train pid=7726)[0m INFO:root:Model: "model"
[2m[36m(train pid=7726)[0m INFO:root:_________________________________________________________________
[2m[36m(train pid=7726)[0m INFO:root:Layer (type)                 Output Shape              Param #   
[2m[36m(train pid=7726)[0m INFO:root:=================================================================
[2m[36m(train pid=7726)[0m INFO:root:input_1 (InputLayer)         [(None, 2, 315)]          0         
[2m[36m(train pid=7726)[0m INFO:root:_________________________________________________________________
[2m[36m(train pid=7726)[0m INFO:root:rnn_cell_1 (RNN)             (None, 2, 64)             97280     
[2m[36m(train pid=7726)[0m INFO:root:_________________________________________________________________
[2m[36m(train pid=7726)[0m INFO:root:batch_normalization (BatchNo (None, 2, 64)             256       
[2m[36m(train pid=7726)[0m INFO:root:_________________________________________________________________
[2m[36m(train pid=7726)[0m INFO:root:dropout (Dropout)            (None, 2, 64)             0         
[2m[36m(train pid=7726)[0m INFO:root:_________________________________________________________________
[2m[36m(train pid=7726)[0m INFO:root:rnn_cell_2 (RNN)             (None, 2, 64)             33024     
[2m[36m(train pid=7726)[0m INFO:root:_________________________________________________________________
[2m[36m(train pid=7726)[0m INFO:root:batch_normalization_1 (Batch (None, 2, 64)             256       
[2m[36m(train pid=7726)[0m INFO:root:_________________________________________________________________
[2m[36m(train pid=7726)[0m INFO:root:dropout_1 (Dropout)          (None, 2, 64)             0         
Trial status: 25 TERMINATED | 2 RUNNING | 1 PENDING
Current time: 2023-11-16 13:10:50. Total running time: 5min 30s
Logical resource usage: 4.0/4 CPUs, 2.0/2 GPUs (0.0/1.0 accelerator_type:G)
+-------------------------------------------------------------------------------------------------------------------------+
| Trial name               status         iter     total time (s)      score     mean_epochs     std_score     nasa_score |
…
[2m[36m(train pid=7849)[0m 1000/1000 - 16s - loss: 0.2803 - NASA_score: 0.0207 - Score: 0.1464 - MAE: 0.2272 - val_loss: 0.1649 - val_NASA_score: 0.0209 - val_Score: 0.1483 - val_MAE: 0.2370 - lr: 6.4175e-05
[2m[36m(train pid=7849)[0m 1000/1000 - 16s - loss: 0.1166 - NASA_score: 0.0207 - Score: 0.1457 - MAE: 0.2271 - val_loss: 0.0937 - val_NASA_score: 0.0210 - val_Score: 0.1489 - val_MAE: 0.2380 - lr: 6.4175e-05
[2m[36m(train pid=7849)[0m Epoch 26/100[32m [repeated 2x across cluster][0m
[2m[36m(train pid=7726)[0m INFO:root:_________________________________________________________________
[2m[36m(train pid=7726)[0m INFO:root:rnn_cell_3 (RNN)             (None, 2, 64)             33024     
[2m[36m(train pid=7726)[0m INFO:root:_________________________________________________________________
[2m[36m(train pid=7726)[0m INFO:root:batch_normalization_2 (Batch (None, 2, 64)             256       
[2m[36m(train pid=7726)[0m INFO:root:_________________________________________________________________
[2m[36m(train pid=7726)[0m INFO:root:dropout_2 (Dropout)          (None, 2, 64)             0         
[2m[36m(train pid=7726)[0m INFO:root:_________________________________________________________________
[2m[36m(train pid=7726)[0m INFO:root:rnn_cell_4 (RNN)             (None, 2, 64)             33024     
[2m[36m(train pid=7726)[0m INFO:root:_________________________________________________________________
[2m[36m(train pid=7726)[0m INFO:root:batch_normalization_3 (Batch (None, 2, 64)             256       
[2m[36m(train pid=7726)[0m INFO:root:_________________________________________________________________
[2m[36m(train pid=7726)[0m INFO:root:dropout_3 (Dropout)          (None, 2, 64)             0         
[2m[36m(train pid=7726)[0m INFO:root:_________________________________________________________________
[2m[36m(train pid=7726)[0m INFO:root:self_attention (SelfAttentio (None, 64)                66        
[2m[36m(train pid=7726)[0m INFO:root:_________________________________________________________________
[2m[36m(train pid=7726)[0m INFO:root:dropout_4 (Dropout)          (None, 64)                0         
[2m[36m(train pid=7726)[0m INFO:root:_________________________________________________________________
[2m[36m(train pid=7726)[0m INFO:root:flatten (Flatten)            (None, 64)                0         
[2m[36m(train pid=7726)[0m INFO:root:_________________________________________________________________
[2m[36m(train pid=7726)[0m INFO:root:dense (Dense)                (None, 158)               10270     
[2m[36m(train pid=7726)[0m INFO:root:_________________________________________________________________
[2m[36m(train pid=7726)[0m INFO:root:activation (Activation)      (None, 158)               0         
[2m[36m(train pid=7726)[0m INFO:root:_________________________________________________________________
[2m[36m(train pid=7726)[0m INFO:root:dropout_5 (Dropout)          (None, 158)               0         
[2m[36m(train pid=7726)[0m INFO:root:_________________________________________________________________
[2m[36m(train pid=7726)[0m INFO:root:dense_1 (Dense)              (None, 100)               15900     
[2m[36m(train pid=7726)[0m INFO:root:_________________________________________________________________
[2m[36m(train pid=7726)[0m INFO:root:activation_1 (Activation)    (None, 100)               0         
[2m[36m(train pid=7726)[0m INFO:root:_________________________________________________________________
[2m[36m(train pid=7726)[0m INFO:root:dropout_6 (Dropout)          (None, 100)               0         
[2m[36m(train pid=7726)[0m INFO:root:_________________________________________________________________
[2m[36m(train pid=7726)[0m INFO:root:predictions (Dense)          (None, 1)                 101       
[2m[36m(train pid=7726)[0m INFO:root:=================================================================
[2m[36m(train pid=7726)[0m INFO:root:Total params: 223,713
[2m[36m(train pid=7726)[0m INFO:root:Trainable params: 223,201
[2m[36m(train pid=7726)[0m INFO:root:Non-trainable params: 512
[2m[36m(train pid=7726)[0m INFO:root:_________________________________________________________________
…
[2m[36m(train pid=7849)[0m INFO:root:Model: "model"
[2m[36m(train pid=7849)[0m INFO:root:_________________________________________________________________
[2m[36m(train pid=7849)[0m INFO:root:Layer (type)                 Output Shape              Param #   
[2m[36m(train pid=7849)[0m INFO:root:=================================================================
[2m[36m(train pid=7849)[0m INFO:root:input_1 (InputLayer)         [(None, 2, 305)]          0         
[2m[36m(train pid=7849)[0m INFO:root:_________________________________________________________________
[2m[36m(train pid=7849)[0m INFO:root:rnn_cell_1 (RNN)             (None, 2, 64)             71232     
[2m[36m(train pid=7849)[0m INFO:root:_________________________________________________________________
[2m[36m(train pid=7849)[0m INFO:root:batch_normalization (BatchNo (None, 2, 64)             256       
[2m[36m(train pid=7849)[0m INFO:root:_________________________________________________________________
[2m[36m(train pid=7849)[0m INFO:root:dropout (Dropout)            (None, 2, 64)             0         
[2m[36m(train pid=7849)[0m INFO:root:_________________________________________________________________
[2m[36m(train pid=7849)[0m INFO:root:rnn_cell_2 (RNN)             (None, 2, 64)             24960     
[2m[36m(train pid=7849)[0m INFO:root:_________________________________________________________________
[2m[36m(train pid=7849)[0m INFO:root:batch_normalization_1 (Batch (None, 2, 64)             256       
[2m[36m(train pid=7849)[0m INFO:root:_________________________________________________________________
[2m[36m(train pid=7849)[0m INFO:root:dropout_1 (Dropout)          (None, 2, 64)             0         
[2m[36m(train pid=7849)[0m INFO:root:_________________________________________________________________
[2m[36m(train pid=7849)[0m INFO:root:rnn_cell_3 (RNN)             (None, 2, 64)             24960     
[2m[36m(train pid=7849)[0m INFO:root:_________________________________________________________________
[2m[36m(train pid=7849)[0m INFO:root:batch_normalization_2 (Batch (None, 2, 64)             256       
[2m[36m(train pid=7849)[0m INFO:root:_________________________________________________________________
[2m[36m(train pid=7849)[0m INFO:root:dropout_2 (Dropout)          (None, 2, 64)             0         
[2m[36m(train pid=7849)[0m INFO:root:_________________________________________________________________
[2m[36m(train pid=7849)[0m INFO:root:rnn_cell_4 (RNN)             (None, 2, 64)             24960     
[2m[36m(train pid=7849)[0m INFO:root:_________________________________________________________________
[2m[36m(train pid=7849)[0m INFO:root:batch_normalization_3 (Batch (None, 2, 64)             256       
[2m[36m(train pid=7849)[0m INFO:root:_________________________________________________________________
[2m[36m(train pid=7849)[0m INFO:root:dropout_3 (Dropout)          (None, 2, 64)             0         
[2m[36m(train pid=7849)[0m INFO:root:_________________________________________________________________
[2m[36m(train pid=7849)[0m INFO:root:self_attention (SelfAttentio (None, 64)                66        
[2m[36m(train pid=7726)[0m 1000/1000 - 23s - loss: 7.1738 - NASA_score: 0.0589 - Score: 0.3856 - MAE: 0.5673 - val_loss: 7.0141 - val_NASA_score: 0.0586 - val_Score: 0.3409 - val_MAE: 0.5656 - lr: 2.5412e-04
Trial status: 25 TERMINATED | 2 RUNNING | 1 PENDING
Current time: 2023-11-16 13:14:21. Total running time: 9min 1s
Logical resource usage: 4.0/4 CPUs, 2.0/2 GPUs (0.0/1.0 accelerator_type:G)
…
| rnn_pronostia_7a732a1a   TERMINATED        6          0.0651107   0.143667            16.6    0.00327882      0.0203425 |
| rnn_pronostia_83f93d9b   TERMINATED        6          0.063978    0.143807            15      0.00301069      0.020418  |
| rnn_pronostia_7ef71005   PENDING                                                                                        |
+-------------------------------------------------------------------------------------------------------------------------+
[2m[36m(train pid=7849)[0m INFO:root:_________________________________________________________________
[2m[36m(train pid=7849)[0m INFO:root:dropout_4 (Dropout)          (None, 64)                0         
[2m[36m(train pid=7849)[0m INFO:root:_________________________________________________________________
[2m[36m(train pid=7849)[0m INFO:root:flatten (Flatten)            (None, 64)                0         
[2m[36m(train pid=7849)[0m INFO:root:_________________________________________________________________
[2m[36m(train pid=7849)[0m INFO:root:dense (Dense)                (None, 167)               10855     
[2m[36m(train pid=7849)[0m INFO:root:_________________________________________________________________
[2m[36m(train pid=7849)[0m INFO:root:activation (Activation)      (None, 167)               0         
[2m[36m(train pid=7849)[0m INFO:root:_________________________________________________________________
[2m[36m(train pid=7849)[0m INFO:root:dropout_5 (Dropout)          (None, 167)               0         
[2m[36m(train pid=7849)[0m INFO:root:_________________________________________________________________
[2m[36m(train pid=7849)[0m INFO:root:dense_1 (Dense)              (None, 100)               16800     
[2m[36m(train pid=7849)[0m INFO:root:_________________________________________________________________
[2m[36m(train pid=7849)[0m INFO:root:activation_1 (Activation)    (None, 100)               0         
[2m[36m(train pid=7849)[0m INFO:root:_________________________________________________________________
[2m[36m(train pid=7849)[0m INFO:root:dropout_6 (Dropout)          (None, 100)               0         
[2m[36m(train pid=7849)[0m INFO:root:_________________________________________________________________
[2m[36m(train pid=7849)[0m INFO:root:predictions (Dense)          (None, 1)                 101       
[2m[36m(train pid=7849)[0m INFO:root:=================================================================
[2m[36m(train pid=7849)[0m INFO:root:Total params: 174,958
[2m[36m(train pid=7849)[0m INFO:root:Trainable params: 174,446
[2m[36m(train pid=7849)[0m INFO:root:Non-trainable params: 512
[2m[36m(train pid=7849)[0m INFO:root:_________________________________________________________________
…
[2m[36m(train pid=7726)[0m INFO:root:Model: "model"
[2m[36m(train pid=7726)[0m INFO:root:_________________________________________________________________
[2m[36m(train pid=7726)[0m INFO:root:Layer (type)                 Output Shape              Param #   
[2m[36m(train pid=7726)[0m INFO:root:=================================================================
[2m[36m(train pid=7726)[0m INFO:root:input_1 (InputLayer)         [(None, 2, 315)]          0         
[2m[36m(train pid=7726)[0m INFO:root:_________________________________________________________________
[2m[36m(train pid=7726)[0m INFO:root:rnn_cell_1 (RNN)             (None, 2, 64)             97280     
[2m[36m(train pid=7726)[0m INFO:root:_________________________________________________________________
[2m[36m(train pid=7726)[0m INFO:root:batch_normalization (BatchNo (None, 2, 64)             256       
[2m[36m(train pid=7726)[0m INFO:root:_________________________________________________________________
[2m[36m(train pid=7726)[0m INFO:root:dropout (Dropout)            (None, 2, 64)             0         
[2m[36m(train pid=7726)[0m INFO:root:_________________________________________________________________
[2m[36m(train pid=7726)[0m INFO:root:rnn_cell_2 (RNN)             (None, 2, 64)             33024     
[2m[36m(train pid=7726)[0m INFO:root:_________________________________________________________________
[2m[36m(train pid=7726)[0m INFO:root:batch_normalization_1 (Batch (None, 2, 64)             256       
[2m[36m(train pid=7726)[0m INFO:root:_________________________________________________________________
[2m[36m(train pid=7726)[0m INFO:root:dropout_1 (Dropout)          (None, 2, 64)             0         
[2m[36m(train pid=7726)[0m INFO:root:_________________________________________________________________
[2m[36m(train pid=7726)[0m INFO:root:rnn_cell_3 (RNN)             (None, 2, 64)             33024     
[2m[36m(train pid=7726)[0m INFO:root:_________________________________________________________________
[2m[36m(train pid=7726)[0m INFO:root:batch_normalization_2 (Batch (None, 2, 64)             256       
[2m[36m(train pid=7726)[0m INFO:root:_________________________________________________________________
[2m[36m(train pid=7726)[0m INFO:root:dropout_2 (Dropout)          (None, 2, 64)             0         
[2m[36m(train pid=7726)[0m INFO:root:_________________________________________________________________
[2m[36m(train pid=7726)[0m INFO:root:rnn_cell_4 (RNN)             (None, 2, 64)             33024     
[2m[36m(train pid=7726)[0m INFO:root:_________________________________________________________________
[2m[36m(train pid=7726)[0m INFO:root:batch_normalization_3 (Batch (None, 2, 64)             256       
[2m[36m(train pid=7726)[0m INFO:root:_________________________________________________________________
[2m[36m(train pid=7726)[0m INFO:root:dropout_3 (Dropout)          (None, 2, 64)             0         
[2m[36m(train pid=7726)[0m INFO:root:_________________________________________________________________
[2m[36m(train pid=7726)[0m INFO:root:self_attention (SelfAttentio (None, 64)                66        
[2m[36m(train pid=7726)[0m INFO:root:_________________________________________________________________
[2m[36m(train pid=7726)[0m INFO:root:dropout_4 (Dropout)          (None, 64)                0         
[2m[36m(train pid=7726)[0m INFO:root:_________________________________________________________________
[2m[36m(train pid=7726)[0m INFO:root:flatten (Flatten)            (None, 64)                0         
[2m[36m(train pid=7726)[0m INFO:root:_________________________________________________________________
[2m[36m(train pid=7726)[0m INFO:root:dense (Dense)                (None, 158)               10270     
[2m[36m(train pid=7726)[0m INFO:root:_________________________________________________________________
[2m[36m(train pid=7726)[0m INFO:root:activation (Activation)      (None, 158)               0         
[2m[36m(train pid=7726)[0m INFO:root:_________________________________________________________________
[2m[36m(train pid=7726)[0m INFO:root:dropout_5 (Dropout)          (None, 158)               0         
[2m[36m(train pid=7726)[0m INFO:root:_________________________________________________________________
[2m[36m(train pid=7726)[0m INFO:root:dense_1 (Dense)              (None, 100)               15900     
[2m[36m(train pid=7726)[0m INFO:root:_________________________________________________________________
20 more TERMINATED
[2m[36m(train pid=7849)[0m 1000/1000 - 16s - loss: 11.5966 - NASA_score: 0.1108 - Score: 1.0060 - MAE: 1.1598 - val_loss: 8.2960 - val_NASA_score: 0.0584 - val_Score: 0.3400 - val_MAE: 0.5639 - lr: 6.4175e-05
[2m[36m(train pid=7849)[0m Epoch 2/100
[2m[36m(train pid=7726)[0m 1000/1000 - 23s - loss: 5.9947 - NASA_score: 0.0577 - Score: 0.3452 - MAE: 0.5574 - val_loss: 5.7560 - val_NASA_score: 0.0585 - val_Score: 0.3407 - val_MAE: 0.5652 - lr: 2.5412e-04
…
[2m[36m(train pid=7849)[0m INFO:root:Model: "model"
[2m[36m(train pid=7849)[0m INFO:root:_________________________________________________________________
[2m[36m(train pid=7849)[0m INFO:root:Layer (type)                 Output Shape              Param #   
[2m[36m(train pid=7849)[0m INFO:root:=================================================================
[2m[36m(train pid=7849)[0m INFO:root:input_1 (InputLayer)         [(None, 2, 305)]          0         
[2m[36m(train pid=7849)[0m INFO:root:_________________________________________________________________
[2m[36m(train pid=7849)[0m INFO:root:rnn_cell_1 (RNN)             (None, 2, 64)             71232     
[2m[36m(train pid=7849)[0m INFO:root:_________________________________________________________________
[2m[36m(train pid=7849)[0m INFO:root:batch_normalization (BatchNo (None, 2, 64)             256       
[2m[36m(train pid=7849)[0m INFO:root:_________________________________________________________________
[2m[36m(train pid=7849)[0m INFO:root:dropout (Dropout)            (None, 2, 64)             0         
[2m[36m(train pid=7849)[0m INFO:root:_________________________________________________________________
[2m[36m(train pid=7849)[0m INFO:root:rnn_cell_2 (RNN)             (None, 2, 64)             24960     
[2m[36m(train pid=7849)[0m INFO:root:_________________________________________________________________
[2m[36m(train pid=7849)[0m INFO:root:batch_normalization_1 (Batch (None, 2, 64)             256       
[2m[36m(train pid=7849)[0m INFO:root:_________________________________________________________________
[2m[36m(train pid=7849)[0m INFO:root:dropout_1 (Dropout)          (None, 2, 64)             0         
[2m[36m(train pid=7849)[0m INFO:root:_________________________________________________________________
[2m[36m(train pid=7849)[0m INFO:root:rnn_cell_3 (RNN)             (None, 2, 64)             24960     
[2m[36m(train pid=7849)[0m INFO:root:_________________________________________________________________
[2m[36m(train pid=7849)[0m INFO:root:batch_normalization_2 (Batch (None, 2, 64)             256       
[2m[36m(train pid=7849)[0m INFO:root:_________________________________________________________________
[2m[36m(train pid=7849)[0m INFO:root:dropout_2 (Dropout)          (None, 2, 64)             0         
[2m[36m(train pid=7849)[0m INFO:root:_________________________________________________________________
[2m[36m(train pid=7849)[0m INFO:root:rnn_cell_4 (RNN)             (None, 2, 64)             24960     
[2m[36m(train pid=7849)[0m INFO:root:_________________________________________________________________
[2m[36m(train pid=7849)[0m INFO:root:batch_normalization_3 (Batch (None, 2, 64)             256       
[2m[36m(train pid=7849)[0m INFO:root:_________________________________________________________________
[2m[36m(train pid=7849)[0m INFO:root:dropout_3 (Dropout)          (None, 2, 64)             0         
[2m[36m(train pid=7849)[0m INFO:root:_________________________________________________________________
[2m[36m(train pid=7849)[0m INFO:root:self_attention (SelfAttentio (None, 64)                66        
[2m[36m(train pid=7849)[0m INFO:root:_________________________________________________________________
[2m[36m(train pid=7849)[0m INFO:root:dropout_4 (Dropout)          (None, 64)                0         
[2m[36m(train pid=7849)[0m INFO:root:_________________________________________________________________
[2m[36m(train pid=7849)[0m INFO:root:flatten (Flatten)            (None, 64)                0         
[2m[36m(train pid=7849)[0m INFO:root:_________________________________________________________________
[2m[36m(train pid=7849)[0m INFO:root:dense (Dense)                (None, 167)               10855     
[2m[36m(train pid=7849)[0m INFO:root:_________________________________________________________________
[2m[36m(train pid=7849)[0m INFO:root:activation (Activation)      (None, 167)               0         
[2m[36m(train pid=7849)[0m INFO:root:_________________________________________________________________
[2m[36m(train pid=7849)[0m INFO:root:dropout_5 (Dropout)          (None, 167)               0         
[2m[36m(train pid=7849)[0m INFO:root:_________________________________________________________________
[2m[36m(train pid=7849)[0m INFO:root:dense_1 (Dense)              (None, 100)               16800     
[2m[36m(train pid=7849)[0m INFO:root:_________________________________________________________________
[2m[36m(train pid=7849)[0m INFO:root:activation_1 (Activation)    (None, 100)               0         
[2m[36m(train pid=7849)[0m INFO:root:_________________________________________________________________
[2m[36m(train pid=7849)[0m INFO:root:dropout_6 (Dropout)          (None, 100)               0         
[2m[36m(train pid=7849)[0m INFO:root:_________________________________________________________________
[2m[36m(train pid=7849)[0m INFO:root:predictions (Dense)          (None, 1)                 101       
[2m[36m(train pid=7849)[0m INFO:root:=================================================================
[2m[36m(train pid=7849)[0m INFO:root:Total params: 174,958
[2m[36m(train pid=7849)[0m INFO:root:Trainable params: 174,446
[2m[36m(train pid=7849)[0m INFO:root:Non-trainable params: 512
[2m[36m(train pid=7849)[0m INFO:root:_________________________________________________________________
…
| rnn_pronostia_6d552b74   TERMINATED        6          0.0643678   0.143711         13.4       0.00364715      0.0202932 |
| rnn_pronostia_7a732a1a   TERMINATED        6          0.0651107   0.143667         16.6       0.00327882      0.0203425 |
| rnn_pronostia_83f93d9b   TERMINATED        6          0.063978    0.143807         15         0.00301069      0.020418  |
| rnn_pronostia_7ef71005   PENDING                                                                                        |
+-------------------------------------------------------------------------------------------------------------------------+
[2m[36m(train pid=7726)[0m INFO:root:batch_normalization (BatchNo (None, 2, 64)             256       
[2m[36m(train pid=7726)[0m INFO:root:_________________________________________________________________
[2m[36m(train pid=7726)[0m INFO:root:dropout (Dropout)            (None, 2, 64)             0         
[2m[36m(train pid=7726)[0m INFO:root:_________________________________________________________________
[2m[36m(train pid=7726)[0m INFO:root:rnn_cell_2 (RNN)             (None, 2, 64)             33024     
[2m[36m(train pid=7726)[0m INFO:root:_________________________________________________________________
[2m[36m(train pid=7726)[0m INFO:root:batch_normalization_1 (Batch (None, 2, 64)             256       
[2m[36m(train pid=7726)[0m INFO:root:_________________________________________________________________
[2m[36m(train pid=7726)[0m INFO:root:dropout_1 (Dropout)          (None, 2, 64)             0         
[2m[36m(train pid=7726)[0m INFO:root:_________________________________________________________________
[2m[36m(train pid=7726)[0m INFO:root:rnn_cell_3 (RNN)             (None, 2, 64)             33024     
[2m[36m(train pid=7726)[0m INFO:root:_________________________________________________________________
[2m[36m(train pid=7726)[0m INFO:root:batch_normalization_2 (Batch (None, 2, 64)             256       
[2m[36m(train pid=7726)[0m INFO:root:_________________________________________________________________
[2m[36m(train pid=7726)[0m INFO:root:dropout_2 (Dropout)          (None, 2, 64)             0         
[2m[36m(train pid=7726)[0m INFO:root:_________________________________________________________________
[2m[36m(train pid=7726)[0m INFO:root:rnn_cell_4 (RNN)             (None, 2, 64)             33024     
[2m[36m(train pid=7726)[0m INFO:root:_________________________________________________________________
[2m[36m(train pid=7726)[0m INFO:root:batch_normalization_3 (Batch (None, 2, 64)             256       
[2m[36m(train pid=7726)[0m INFO:root:_________________________________________________________________
[2m[36m(train pid=7726)[0m INFO:root:dropout_3 (Dropout)          (None, 2, 64)             0         
[2m[36m(train pid=7726)[0m INFO:root:_________________________________________________________________
[2m[36m(train pid=7726)[0m INFO:root:self_attention (SelfAttentio (None, 64)                66        
[2m[36m(train pid=7726)[0m INFO:root:_________________________________________________________________
[2m[36m(train pid=7726)[0m INFO:root:dropout_4 (Dropout)          (None, 64)                0         
[2m[36m(train pid=7726)[0m INFO:root:_________________________________________________________________
[2m[36m(train pid=7726)[0m INFO:root:flatten (Flatten)            (None, 64)                0         
[2m[36m(train pid=7726)[0m INFO:root:_________________________________________________________________
[2m[36m(train pid=7726)[0m INFO:root:dense (Dense)                (None, 158)               10270     
[2m[36m(train pid=7726)[0m INFO:root:_________________________________________________________________
[2m[36m(train pid=7726)[0m INFO:root:activation (Activation)      (None, 158)               0         
[2m[36m(train pid=7726)[0m INFO:root:_________________________________________________________________
[2m[36m(train pid=7726)[0m INFO:root:dropout_5 (Dropout)          (None, 158)               0         
[2m[36m(train pid=7726)[0m INFO:root:_________________________________________________________________
[2m[36m(train pid=7726)[0m INFO:root:dense_1 (Dense)              (None, 100)               15900     
[2m[36m(train pid=7726)[0m INFO:root:_________________________________________________________________
[2m[36m(train pid=7726)[0m INFO:root:activation_1 (Activation)    (None, 100)               0         
[2m[36m(train pid=7726)[0m INFO:root:_________________________________________________________________
[2m[36m(train pid=7726)[0m INFO:root:dropout_6 (Dropout)          (None, 100)               0         
[2m[36m(train pid=7726)[0m INFO:root:_________________________________________________________________
[2m[36m(train pid=7726)[0m INFO:root:predictions (Dense)          (None, 1)                 101       
[2m[36m(train pid=7726)[0m INFO:root:=================================================================
[2m[36m(train pid=7726)[0m INFO:root:Total params: 223,713
[2m[36m(train pid=7726)[0m INFO:root:Trainable params: 223,201
[2m[36m(train pid=7726)[0m INFO:root:Non-trainable params: 512
[2m[36m(train pid=7726)[0m INFO:root:_________________________________________________________________
…
[2m[36m(train pid=7849)[0m INFO:root:Model: "model"
[2m[36m(train pid=7849)[0m INFO:root:_________________________________________________________________
[2m[36m(train pid=7849)[0m INFO:root:Layer (type)                 Output Shape              Param #   
[2m[36m(train pid=7849)[0m INFO:root:=================================================================
[2m[36m(train pid=7849)[0m INFO:root:input_1 (InputLayer)         [(None, 2, 305)]          0         
[2m[36m(train pid=7849)[0m INFO:root:_________________________________________________________________
[2m[36m(train pid=7849)[0m INFO:root:rnn_cell_1 (RNN)             (None, 2, 64)             71232     
[2m[36m(train pid=7849)[0m INFO:root:_________________________________________________________________
[2m[36m(train pid=7849)[0m INFO:root:batch_normalization (BatchNo (None, 2, 64)             256       
[2m[36m(train pid=7849)[0m INFO:root:_________________________________________________________________
[2m[36m(train pid=7849)[0m INFO:root:dropout (Dropout)            (None, 2, 64)             0         
[2m[36m(train pid=7849)[0m INFO:root:_________________________________________________________________
[2m[36m(train pid=7849)[0m INFO:root:rnn_cell_2 (RNN)             (None, 2, 64)             24960     
[2m[36m(train pid=7849)[0m INFO:root:_________________________________________________________________
[2m[36m(train pid=7849)[0m INFO:root:batch_normalization_1 (Batch (None, 2, 64)             256       
[2m[36m(train pid=7849)[0m INFO:root:_________________________________________________________________
[2m[36m(train pid=7849)[0m INFO:root:dropout_1 (Dropout)          (None, 2, 64)             0         
[2m[36m(train pid=7849)[0m INFO:root:_________________________________________________________________
[2m[36m(train pid=7849)[0m INFO:root:rnn_cell_3 (RNN)             (None, 2, 64)             24960     
[2m[36m(train pid=7849)[0m INFO:root:_________________________________________________________________
[2m[36m(train pid=7849)[0m INFO:root:batch_normalization_2 (Batch (None, 2, 64)             256       
[2m[36m(train pid=7849)[0m INFO:root:_________________________________________________________________
20 more TERMINATED
[2m[36m(train pid=7726)[0m Epoch 9/100
[2m[36m(train pid=7849)[0m [1 2 3 4 5 6 7]
[2m[36m(train pid=7726)[0m 1000/1000 - 23s - loss: 7.0648 - NASA_score: 0.0593 - Score: 0.3787 - MAE: 0.5719 - val_loss: 6.8999 - val_NASA_score: 0.0577 - val_Score: 0.3381 - val_MAE: 0.5576 - lr: 2.5412e-04
…
[2m[36m(train pid=7849)[0m 1000/1000 - 16s - loss: 5.8259 - NASA_score: 0.0534 - Score: 0.3227 - MAE: 0.5228 - val_loss: 5.6767 - val_NASA_score: 0.0591 - val_Score: 0.3434 - val_MAE: 0.5705 - lr: 6.4175e-05[32m [repeated 2x across cluster][0m
[2m[36m(train pid=7726)[0m Epoch 20/100
[2m[36m(train pid=7849)[0m Epoch 12/100
[2m[36m(train pid=7849)[0m 1000/1000 - 16s - loss: 5.4556 - NASA_score: 0.0536 - Score: 0.3230 - MAE: 0.5239 - val_loss: 5.3144 - val_NASA_score: 0.0583 - val_Score: 0.3395 - val_MAE: 0.5628 - lr: 6.4175e-05[32m [repeated 2x across cluster][0m
[2m[36m(train pid=7849)[0m INFO:root:dropout_2 (Dropout)          (None, 2, 64)             0         
[2m[36m(train pid=7849)[0m INFO:root:_________________________________________________________________
[2m[36m(train pid=7849)[0m INFO:root:rnn_cell_4 (RNN)             (None, 2, 64)             24960     
[2m[36m(train pid=7849)[0m INFO:root:_________________________________________________________________
[2m[36m(train pid=7849)[0m INFO:root:batch_normalization_3 (Batch (None, 2, 64)             256       
[2m[36m(train pid=7849)[0m INFO:root:_________________________________________________________________
[2m[36m(train pid=7849)[0m INFO:root:dropout_3 (Dropout)          (None, 2, 64)             0         
[2m[36m(train pid=7849)[0m INFO:root:_________________________________________________________________
[2m[36m(train pid=7849)[0m INFO:root:self_attention (SelfAttentio (None, 64)                66        
[2m[36m(train pid=7849)[0m INFO:root:_________________________________________________________________
[2m[36m(train pid=7849)[0m INFO:root:dropout_4 (Dropout)          (None, 64)                0         
[2m[36m(train pid=7849)[0m INFO:root:_________________________________________________________________
[2m[36m(train pid=7849)[0m INFO:root:flatten (Flatten)            (None, 64)                0         
[2m[36m(train pid=7849)[0m INFO:root:_________________________________________________________________
[2m[36m(train pid=7849)[0m INFO:root:dense (Dense)                (None, 167)               10855     
[2m[36m(train pid=7849)[0m INFO:root:_________________________________________________________________
[2m[36m(train pid=7849)[0m INFO:root:activation (Activation)      (None, 167)               0         
[2m[36m(train pid=7849)[0m INFO:root:_________________________________________________________________
[2m[36m(train pid=7849)[0m INFO:root:dropout_5 (Dropout)          (None, 167)               0         
[2m[36m(train pid=7849)[0m INFO:root:_________________________________________________________________
[2m[36m(train pid=7849)[0m INFO:root:dense_1 (Dense)              (None, 100)               16800     
[2m[36m(train pid=7849)[0m INFO:root:_________________________________________________________________
[2m[36m(train pid=7849)[0m INFO:root:activation_1 (Activation)    (None, 100)               0         
[2m[36m(train pid=7849)[0m INFO:root:_________________________________________________________________
[2m[36m(train pid=7849)[0m INFO:root:dropout_6 (Dropout)          (None, 100)               0         
[2m[36m(train pid=7849)[0m INFO:root:_________________________________________________________________
[2m[36m(train pid=7849)[0m INFO:root:predictions (Dense)          (None, 1)                 101       
[2m[36m(train pid=7849)[0m INFO:root:=================================================================
[2m[36m(train pid=7849)[0m INFO:root:Total params: 174,958
[2m[36m(train pid=7849)[0m INFO:root:Trainable params: 174,446
[2m[36m(train pid=7849)[0m INFO:root:Non-trainable params: 512
[2m[36m(train pid=7849)[0m INFO:root:_________________________________________________________________
…
[2m[36m(train pid=7726)[0m INFO:root:Model: "model"
[2m[36m(train pid=7726)[0m INFO:root:_________________________________________________________________
[2m[36m(train pid=7726)[0m INFO:root:Layer (type)                 Output Shape              Param #   
[2m[36m(train pid=7726)[0m INFO:root:=================================================================
[2m[36m(train pid=7726)[0m INFO:root:input_1 (InputLayer)         [(None, 2, 315)]          0         
[2m[36m(train pid=7726)[0m INFO:root:_________________________________________________________________
[2m[36m(train pid=7726)[0m INFO:root:rnn_cell_1 (RNN)             (None, 2, 64)             97280     
[2m[36m(train pid=7726)[0m INFO:root:_________________________________________________________________
[2m[36m(train pid=7726)[0m INFO:root:batch_normalization (BatchNo (None, 2, 64)             256       
[2m[36m(train pid=7726)[0m INFO:root:_________________________________________________________________
[2m[36m(train pid=7726)[0m INFO:root:dropout (Dropout)            (None, 2, 64)             0         
[2m[36m(train pid=7726)[0m INFO:root:_________________________________________________________________
[2m[36m(train pid=7726)[0m INFO:root:rnn_cell_2 (RNN)             (None, 2, 64)             33024     
[2m[36m(train pid=7726)[0m INFO:root:_________________________________________________________________
[2m[36m(train pid=7726)[0m INFO:root:batch_normalization_1 (Batch (None, 2, 64)             256       
[2m[36m(train pid=7726)[0m INFO:root:_________________________________________________________________
[2m[36m(train pid=7726)[0m INFO:root:dropout_1 (Dropout)          (None, 2, 64)             0         
[2m[36m(train pid=7726)[0m INFO:root:_________________________________________________________________
[2m[36m(train pid=7726)[0m INFO:root:rnn_cell_3 (RNN)             (None, 2, 64)             33024     
[2m[36m(train pid=7726)[0m INFO:root:_________________________________________________________________
[2m[36m(train pid=7726)[0m INFO:root:batch_normalization_2 (Batch (None, 2, 64)             256       
[2m[36m(train pid=7726)[0m INFO:root:_________________________________________________________________
[2m[36m(train pid=7726)[0m INFO:root:dropout_2 (Dropout)          (None, 2, 64)             0         
[2m[36m(train pid=7726)[0m INFO:root:_________________________________________________________________
[2m[36m(train pid=7726)[0m INFO:root:rnn_cell_4 (RNN)             (None, 2, 64)             33024     
[2m[36m(train pid=7726)[0m INFO:root:_________________________________________________________________
[2m[36m(train pid=7726)[0m INFO:root:batch_normalization_3 (Batch (None, 2, 64)             256       
[2m[36m(train pid=7726)[0m INFO:root:_________________________________________________________________
[2m[36m(train pid=7726)[0m INFO:root:dropout_3 (Dropout)          (None, 2, 64)             0         
[2m[36m(train pid=7726)[0m INFO:root:_________________________________________________________________
[2m[36m(train pid=7726)[0m INFO:root:self_attention (SelfAttentio (None, 64)                66        
[2m[36m(train pid=7726)[0m INFO:root:_________________________________________________________________
[2m[36m(train pid=7726)[0m INFO:root:dropout_4 (Dropout)          (None, 64)                0         
[2m[36m(train pid=7726)[0m INFO:root:_________________________________________________________________
[2m[36m(train pid=7726)[0m INFO:root:flatten (Flatten)            (None, 64)                0         
[2m[36m(train pid=7849)[0m Epoch 13/100[32m [repeated 2x across cluster][0m

Trial rnn_pronostia_954e318b finished iteration 4 at 2023-11-16 13:29:47. Total running time: 24min 28s
+-------------------------------------------------+
| Trial rnn_pronostia_954e318b result             |
+-------------------------------------------------+
| checkpoint_dir_name                             |
…
| time_this_iter_s                        0.00058 |
| time_total_s                            0.27248 |
| training_iteration                            6 |
| mae                                     0.22736 |
| mean_epochs                                14.6 |
| nasa_score                              0.02032 |
| score                                   0.14356 |
| std_score                               0.00322 |
+-------------------------------------------------+
[2m[36m(train pid=7726)[0m INFO:root:_________________________________________________________________
[2m[36m(train pid=7726)[0m INFO:root:dense (Dense)                (None, 158)               10270     
[2m[36m(train pid=7726)[0m INFO:root:_________________________________________________________________
[2m[36m(train pid=7726)[0m INFO:root:activation (Activation)      (None, 158)               0         
[2m[36m(train pid=7726)[0m INFO:root:_________________________________________________________________
[2m[36m(train pid=7726)[0m INFO:root:dropout_5 (Dropout)          (None, 158)               0         
[2m[36m(train pid=7726)[0m INFO:root:_________________________________________________________________
[2m[36m(train pid=7726)[0m INFO:root:dense_1 (Dense)              (None, 100)               15900     
[2m[36m(train pid=7726)[0m INFO:root:_________________________________________________________________
[2m[36m(train pid=7726)[0m INFO:root:activation_1 (Activation)    (None, 100)               0         
[2m[36m(train pid=7726)[0m INFO:root:_________________________________________________________________
[2m[36m(train pid=7726)[0m INFO:root:dropout_6 (Dropout)          (None, 100)               0         
[2m[36m(train pid=7726)[0m INFO:root:_________________________________________________________________
[2m[36m(train pid=7726)[0m INFO:root:predictions (Dense)          (None, 1)                 101       
[2m[36m(train pid=7726)[0m INFO:root:=================================================================
[2m[36m(train pid=7726)[0m INFO:root:Total params: 223,713
[2m[36m(train pid=7726)[0m INFO:root:Trainable params: 223,201
[2m[36m(train pid=7726)[0m INFO:root:Non-trainable params: 512
[2m[36m(train pid=7726)[0m INFO:root:_________________________________________________________________
…
| rnn_pronostia_7a732a1a   TERMINATED        6          0.0651107   0.143667            16.6    0.00327882      0.0203425 |
| rnn_pronostia_83f93d9b   TERMINATED        6          0.063978    0.143807            15      0.00301069      0.020418  |
| rnn_pronostia_f7a6f2d5   PENDING                                                                                        |
+-------------------------------------------------------------------------------------------------------------------------+
[2m[36m(train pid=13545)[0m INFO:root:_________________________________________________________________
[2m[36m(train pid=13545)[0m INFO:root:batch_normalization_1 (Batch (None, 2, 64)             256       
[2m[36m(train pid=13545)[0m INFO:root:_________________________________________________________________
[2m[36m(train pid=13545)[0m INFO:root:dropout_1 (Dropout)          (None, 2, 64)             0         
[2m[36m(train pid=13545)[0m INFO:root:_________________________________________________________________
[2m[36m(train pid=13545)[0m INFO:root:flatten (Flatten)            (None, 128)               0         
[2m[36m(train pid=13545)[0m INFO:root:_________________________________________________________________
[2m[36m(train pid=13545)[0m INFO:root:dense (Dense)                (None, 193)               24897     
[2m[36m(train pid=13545)[0m INFO:root:_________________________________________________________________
[2m[36m(train pid=13545)[0m INFO:root:activation (Activation)      (None, 193)               0         
[2m[36m(train pid=13545)[0m INFO:root:_________________________________________________________________
[2m[36m(train pid=13545)[0m INFO:root:dropout_2 (Dropout)          (None, 193)               0         
[2m[36m(train pid=13545)[0m INFO:root:_________________________________________________________________
[2m[36m(train pid=13545)[0m INFO:root:dense_1 (Dense)              (None, 100)               19400     
[2m[36m(train pid=13545)[0m INFO:root:_________________________________________________________________
[2m[36m(train pid=13545)[0m INFO:root:activation_1 (Activation)    (None, 100)               0         
[2m[36m(train pid=13545)[0m INFO:root:_________________________________________________________________
[2m[36m(train pid=13545)[0m INFO:root:dropout_3 (Dropout)          (None, 100)               0         
[2m[36m(train pid=13545)[0m INFO:root:_________________________________________________________________
[2m[36m(train pid=13545)[0m INFO:root:predictions (Dense)          (None, 1)                 101       
[2m[36m(train pid=13545)[0m INFO:root:=================================================================
[2m[36m(train pid=13545)[0m INFO:root:Total params: 138,414
[2m[36m(train pid=13545)[0m INFO:root:Trainable params: 138,158
[2m[36m(train pid=13545)[0m INFO:root:Non-trainable params: 256
[2m[36m(train pid=13545)[0m INFO:root:_________________________________________________________________
…
[2m[36m(train pid=14065)[0m INFO:root:_________________________________________________________________
[2m[36m(train pid=14065)[0m INFO:root:Layer (type)                 Output Shape              Param #   
[2m[36m(train pid=14065)[0m INFO:root:=================================================================
[2m[36m(train pid=14065)[0m INFO:root:input_1 (InputLayer)         [(None, 2, 294)]          0         
[2m[36m(train pid=14065)[0m INFO:root:_________________________________________________________________
[2m[36m(train pid=14065)[0m INFO:root:rnn_cell_1 (RNN)             (None, 2, 64)             69120     
[2m[36m(train pid=14065)[0m INFO:root:_________________________________________________________________
[2m[36m(train pid=14065)[0m INFO:root:dropout (Dropout)            (None, 2, 64)             0         
[2m[36m(train pid=14065)[0m INFO:root:_________________________________________________________________
[2m[36m(train pid=14065)[0m INFO:root:rnn_cell_2 (RNN)             (None, 2, 64)             24960     
[2m[36m(train pid=14065)[0m INFO:root:_________________________________________________________________
[2m[36m(train pid=14065)[0m INFO:root:dropout_1 (Dropout)          (None, 2, 64)             0         
[2m[36m(train pid=14065)[0m INFO:root:_________________________________________________________________
[2m[36m(train pid=14065)[0m INFO:root:rnn_cell_3 (RNN)             (None, 2, 64)             24960     
[2m[36m(train pid=14065)[0m INFO:root:_________________________________________________________________
[2m[36m(train pid=14065)[0m INFO:root:dropout_2 (Dropout)          (None, 2, 64)             0         
[2m[36m(train pid=14065)[0m INFO:root:_________________________________________________________________
[2m[36m(train pid=14065)[0m INFO:root:flatten (Flatten)            (None, 128)               0         
[2m[36m(train pid=14065)[0m INFO:root:_________________________________________________________________
[2m[36m(train pid=14065)[0m INFO:root:dense (Dense)                (None, 193)               24897     
[2m[36m(train pid=14065)[0m INFO:root:_________________________________________________________________
[2m[36m(train pid=14065)[0m INFO:root:activation (Activation)      (None, 193)               0         
[2m[36m(train pid=14065)[0m INFO:root:_________________________________________________________________
[2m[36m(train pid=14065)[0m INFO:root:dropout_3 (Dropout)          (None, 193)               0         
[2m[36m(train pid=14065)[0m INFO:root:_________________________________________________________________
[2m[36m(train pid=14065)[0m INFO:root:dense_1 (Dense)              (None, 100)               19400     
[2m[36m(train pid=14065)[0m INFO:root:_________________________________________________________________
[2m[36m(train pid=14065)[0m INFO:root:activation_1 (Activation)    (None, 100)               0         
[2m[36m(train pid=14065)[0m INFO:root:_________________________________________________________________
[2m[36m(train pid=14065)[0m INFO:root:dropout_4 (Dropout)          (None, 100)               0         
[2m[36m(train pid=14065)[0m INFO:root:_________________________________________________________________
23 more TERMINATED
[2m[36m(train pid=13545)[0m Epoch 10/100
[2m[36m(train pid=13545)[0m 1000/1000 - 10s - loss: 0.0664 - NASA_score: 0.0195 - Score: 0.1379 - MAE: 0.2172 - val_loss: 0.0782 - val_NASA_score: 0.0209 - val_Score: 0.1496 - val_MAE: 0.2383 - lr: 1.9657e-04[32m [repeated 2x across cluster][0m
…
[2m[36m(train pid=13545)[0m INFO:root:_________________________________________________________________
[2m[36m(train pid=13545)[0m INFO:root:Layer (type)                 Output Shape              Param #   
[2m[36m(train pid=13545)[0m INFO:root:=================================================================
[2m[36m(train pid=13545)[0m INFO:root:input_1 (InputLayer)         [(None, 2, 291)]          0         
[2m[36m(train pid=13545)[0m INFO:root:_________________________________________________________________
[2m[36m(train pid=13545)[0m INFO:root:rnn_cell_1 (RNN)             (None, 2, 64)             68544     
[2m[36m(train pid=13545)[0m INFO:root:_________________________________________________________________
[2m[36m(train pid=13545)[0m INFO:root:batch_normalization (BatchNo (None, 2, 64)             256       
[2m[36m(train pid=13545)[0m INFO:root:_________________________________________________________________
[2m[36m(train pid=13545)[0m INFO:root:dropout (Dropout)            (None, 2, 64)             0         
[2m[36m(train pid=13545)[0m INFO:root:_________________________________________________________________
[2m[36m(train pid=13545)[0m INFO:root:rnn_cell_2 (RNN)             (None, 2, 64)             24960     
[2m[36m(train pid=13545)[0m INFO:root:_________________________________________________________________
[2m[36m(train pid=13545)[0m INFO:root:batch_normalization_1 (Batch (None, 2, 64)             256       
[2m[36m(train pid=13545)[0m INFO:root:_________________________________________________________________
[2m[36m(train pid=13545)[0m INFO:root:dropout_1 (Dropout)          (None, 2, 64)             0         
[2m[36m(train pid=13545)[0m INFO:root:_________________________________________________________________
[2m[36m(train pid=13545)[0m INFO:root:flatten (Flatten)            (None, 128)               0         
[2m[36m(train pid=13545)[0m INFO:root:_________________________________________________________________
[2m[36m(train pid=13545)[0m INFO:root:dense (Dense)                (None, 193)               24897     
[2m[36m(train pid=13545)[0m INFO:root:_________________________________________________________________
[2m[36m(train pid=13545)[0m INFO:root:activation (Activation)      (None, 193)               0         
[2m[36m(train pid=13545)[0m INFO:root:_________________________________________________________________
[2m[36m(train pid=13545)[0m INFO:root:dropout_2 (Dropout)          (None, 193)               0         
[2m[36m(train pid=13545)[0m INFO:root:_________________________________________________________________
[2m[36m(train pid=13545)[0m INFO:root:dense_1 (Dense)              (None, 100)               19400     
[2m[36m(train pid=13545)[0m INFO:root:_________________________________________________________________
[2m[36m(train pid=13545)[0m INFO:root:activation_1 (Activation)    (None, 100)               0         
[2m[36m(train pid=13545)[0m INFO:root:_________________________________________________________________
[2m[36m(train pid=13545)[0m INFO:root:dropout_3 (Dropout)          (None, 100)               0         
[2m[36m(train pid=13545)[0m INFO:root:_________________________________________________________________
[2m[36m(train pid=13545)[0m INFO:root:predictions (Dense)          (None, 1)                 101       
[2m[36m(train pid=13545)[0m INFO:root:=================================================================
[2m[36m(train pid=13545)[0m INFO:root:Total params: 138,414
[2m[36m(train pid=13545)[0m INFO:root:Trainable params: 138,158
[2m[36m(train pid=13545)[0m INFO:root:Non-trainable params: 256
[2m[36m(train pid=13545)[0m INFO:root:_________________________________________________________________
…
[2m[36m(train pid=14065)[0m INFO:root:_________________________________________________________________
[2m[36m(train pid=14065)[0m INFO:root:Layer (type)                 Output Shape              Param #   
[2m[36m(train pid=14065)[0m INFO:root:=================================================================
[2m[36m(train pid=14065)[0m INFO:root:input_1 (InputLayer)         [(None, 2, 294)]          0         
[2m[36m(train pid=14065)[0m INFO:root:_________________________________________________________________
[2m[36m(train pid=14065)[0m INFO:root:rnn_cell_1 (RNN)             (None, 2, 64)             69120     
[2m[36m(train pid=14065)[0m INFO:root:_________________________________________________________________
[2m[36m(train pid=14065)[0m INFO:root:dropout (Dropout)            (None, 2, 64)             0         
[2m[36m(train pid=14065)[0m INFO:root:_________________________________________________________________
[2m[36m(train pid=14065)[0m INFO:root:rnn_cell_2 (RNN)             (None, 2, 64)             24960     
[2m[36m(train pid=14065)[0m INFO:root:_________________________________________________________________
[2m[36m(train pid=14065)[0m INFO:root:dropout_1 (Dropout)          (None, 2, 64)             0         
[2m[36m(train pid=14065)[0m INFO:root:_________________________________________________________________
[2m[36m(train pid=14065)[0m INFO:root:rnn_cell_3 (RNN)             (None, 2, 64)             24960     
[2m[36m(train pid=14065)[0m INFO:root:_________________________________________________________________
[2m[36m(train pid=14065)[0m INFO:root:dropout_2 (Dropout)          (None, 2, 64)             0         
[2m[36m(train pid=14065)[0m INFO:root:_________________________________________________________________
23 more TERMINATED
[2m[36m(train pid=13545)[0m 1000/1000 - 10s - loss: 0.0714 - NASA_score: 0.0203 - Score: 0.1430 - MAE: 0.2267 - val_loss: 0.0690 - val_NASA_score: 0.0202 - val_Score: 0.1407 - val_MAE: 0.2227 - lr: 1.9657e-04
[2m[36m(train pid=13545)[0m Epoch 12/100
[2m[36m(train pid=13545)[0m 1000/1000 - 10s - loss: 0.0711 - NASA_score: 0.0204 - Score: 0.1434 - MAE: 0.2273 - val_loss: 0.0686 - val_NASA_score: 0.0201 - val_Score: 0.1409 - val_MAE: 0.2229 - lr: 1.9657e-05
…
| rnn_pronostia_6d552b74   TERMINATED        6          0.0643678   0.143711            13.4    0.00364715      0.0202932 |
| rnn_pronostia_7a732a1a   TERMINATED        6          0.0651107   0.143667            16.6    0.00327882      0.0203425 |
| rnn_pronostia_83f93d9b   TERMINATED        6          0.063978    0.143807            15      0.00301069      0.020418  |
| rnn_pronostia_f7a6f2d5   PENDING                                                                                        |
+-------------------------------------------------------------------------------------------------------------------------+
[2m[36m(train pid=14065)[0m INFO:root:flatten (Flatten)            (None, 128)               0         
[2m[36m(train pid=14065)[0m INFO:root:_________________________________________________________________
[2m[36m(train pid=14065)[0m INFO:root:dense (Dense)                (None, 193)               24897     
[2m[36m(train pid=14065)[0m INFO:root:_________________________________________________________________
[2m[36m(train pid=14065)[0m INFO:root:activation (Activation)      (None, 193)               0         
[2m[36m(train pid=14065)[0m INFO:root:_________________________________________________________________
[2m[36m(train pid=14065)[0m INFO:root:dropout_3 (Dropout)          (None, 193)               0         
[2m[36m(train pid=14065)[0m INFO:root:_________________________________________________________________
[2m[36m(train pid=14065)[0m INFO:root:dense_1 (Dense)              (None, 100)               19400     
[2m[36m(train pid=14065)[0m INFO:root:_________________________________________________________________
[2m[36m(train pid=14065)[0m INFO:root:activation_1 (Activation)    (None, 100)               0         
[2m[36m(train pid=14065)[0m INFO:root:_________________________________________________________________
[2m[36m(train pid=14065)[0m INFO:root:dropout_4 (Dropout)          (None, 100)               0         
[2m[36m(train pid=14065)[0m INFO:root:_________________________________________________________________
[2m[36m(train pid=14065)[0m INFO:root:predictions (Dense)          (None, 1)                 101       
[2m[36m(train pid=14065)[0m INFO:root:=================================================================
[2m[36m(train pid=14065)[0m INFO:root:Total params: 163,438
[2m[36m(train pid=14065)[0m INFO:root:Trainable params: 163,438
[2m[36m(train pid=14065)[0m INFO:root:Non-trainable params: 0
[2m[36m(train pid=14065)[0m INFO:root:_________________________________________________________________
…
[2m[36m(train pid=14065)[0m INFO:root:_________________________________________________________________
[2m[36m(train pid=14065)[0m INFO:root:Layer (type)                 Output Shape              Param #   
[2m[36m(train pid=14065)[0m INFO:root:=================================================================
[2m[36m(train pid=14065)[0m INFO:root:input_1 (InputLayer)         [(None, 2, 294)]          0         
[2m[36m(train pid=14065)[0m INFO:root:_________________________________________________________________
[2m[36m(train pid=14065)[0m INFO:root:rnn_cell_1 (RNN)             (None, 2, 64)             69120     
[2m[36m(train pid=14065)[0m INFO:root:_________________________________________________________________
[2m[36m(train pid=14065)[0m INFO:root:dropout (Dropout)            (None, 2, 64)             0         
[2m[36m(train pid=14065)[0m INFO:root:_________________________________________________________________
[2m[36m(train pid=14065)[0m INFO:root:rnn_cell_2 (RNN)             (None, 2, 64)             24960     
[2m[36m(train pid=14065)[0m INFO:root:_________________________________________________________________
[2m[36m(train pid=14065)[0m INFO:root:dropout_1 (Dropout)          (None, 2, 64)             0         
[2m[36m(train pid=14065)[0m INFO:root:_________________________________________________________________
[2m[36m(train pid=14065)[0m INFO:root:rnn_cell_3 (RNN)             (None, 2, 64)             24960     
[2m[36m(train pid=14065)[0m INFO:root:_________________________________________________________________
[2m[36m(train pid=14065)[0m INFO:root:dropout_2 (Dropout)          (None, 2, 64)             0         
[2m[36m(train pid=14065)[0m INFO:root:_________________________________________________________________
[2m[36m(train pid=14065)[0m INFO:root:flatten (Flatten)            (None, 128)               0         
[2m[36m(train pid=14065)[0m INFO:root:_________________________________________________________________
[2m[36m(train pid=14065)[0m INFO:root:dense (Dense)                (None, 193)               24897     
[2m[36m(train pid=14065)[0m INFO:root:_________________________________________________________________
[2m[36m(train pid=14065)[0m INFO:root:activation (Activation)      (None, 193)               0         
[2m[36m(train pid=14065)[0m INFO:root:_________________________________________________________________
[2m[36m(train pid=14065)[0m INFO:root:dropout_3 (Dropout)          (None, 193)               0         
[2m[36m(train pid=14065)[0m INFO:root:_________________________________________________________________
[2m[36m(train pid=14065)[0m INFO:root:dense_1 (Dense)              (None, 100)               19400     
[2m[36m(train pid=14065)[0m INFO:root:_________________________________________________________________
[2m[36m(train pid=14065)[0m INFO:root:activation_1 (Activation)    (None, 100)               0         
[2m[36m(train pid=14065)[0m INFO:root:_________________________________________________________________
[2m[36m(train pid=14065)[0m INFO:root:dropout_4 (Dropout)          (None, 100)               0         
[2m[36m(train pid=14065)[0m INFO:root:_________________________________________________________________
[2m[36m(train pid=14065)[0m INFO:root:predictions (Dense)          (None, 1)                 101       
[2m[36m(train pid=14065)[0m INFO:root:=================================================================
[2m[36m(train pid=14065)[0m INFO:root:Total params: 163,438
[2m[36m(train pid=14065)[0m INFO:root:Trainable params: 163,438
[2m[36m(train pid=14065)[0m INFO:root:Non-trainable params: 0
[2m[36m(train pid=14065)[0m INFO:root:_________________________________________________________________
…
[2m[36m(train pid=13545)[0m INFO:root:_________________________________________________________________
[2m[36m(train pid=13545)[0m INFO:root:Layer (type)                 Output Shape              Param #   
[2m[36m(train pid=13545)[0m INFO:root:=================================================================
[2m[36m(train pid=13545)[0m INFO:root:input_1 (InputLayer)         [(None, 2, 291)]          0         
[2m[36m(train pid=13545)[0m INFO:root:_________________________________________________________________
[2m[36m(train pid=13545)[0m INFO:root:rnn_cell_1 (RNN)             (None, 2, 64)             68544     
[2m[36m(train pid=13545)[0m INFO:root:_________________________________________________________________
[2m[36m(train pid=13545)[0m INFO:root:batch_normalization (BatchNo (None, 2, 64)             256       
[2m[36m(train pid=13545)[0m INFO:root:_________________________________________________________________
[2m[36m(train pid=13545)[0m INFO:root:dropout (Dropout)            (None, 2, 64)             0         
[2m[36m(train pid=13545)[0m INFO:root:_________________________________________________________________
[2m[36m(train pid=13545)[0m INFO:root:rnn_cell_2 (RNN)             (None, 2, 64)             24960     
[2m[36m(train pid=13545)[0m INFO:root:_________________________________________________________________
[2m[36m(train pid=13545)[0m INFO:root:batch_normalization_1 (Batch (None, 2, 64)             256       
[2m[36m(train pid=13545)[0m INFO:root:_________________________________________________________________
[2m[36m(train pid=13545)[0m INFO:root:dropout_1 (Dropout)          (None, 2, 64)             0         
[2m[36m(train pid=13545)[0m INFO:root:_________________________________________________________________
[2m[36m(train pid=13545)[0m INFO:root:flatten (Flatten)            (None, 128)               0         
[2m[36m(train pid=13545)[0m INFO:root:_________________________________________________________________
[2m[36m(train pid=13545)[0m INFO:root:dense (Dense)                (None, 193)               24897     
[2m[36m(train pid=13545)[0m INFO:root:_________________________________________________________________
[2m[36m(train pid=13545)[0m INFO:root:activation (Activation)      (None, 193)               0         
[2m[36m(train pid=13545)[0m INFO:root:_________________________________________________________________
[2m[36m(train pid=13545)[0m INFO:root:dropout_2 (Dropout)          (None, 193)               0         
23 more TERMINATED
[2m[36m(train pid=13545)[0m 1000/1000 - 10s - loss: 0.0702 - NASA_score: 0.0201 - Score: 0.1418 - MAE: 0.2241 - val_loss: 0.0713 - val_NASA_score: 0.0201 - val_Score: 0.1428 - val_MAE: 0.2262 - lr: 1.9657e-04[32m [repeated 2x across cluster][0m
[2m[36m(train pid=13545)[0m Epoch 13/100[32m [repeated 2x across cluster][0m
[2m[36m(train pid=13545)[0m 1000/1000 - 10s - loss: 0.0698 - NASA_score: 0.0202 - Score: 0.1421 - MAE: 0.2250 - val_loss: 0.0713 - val_NASA_score: 0.0204 - val_Score: 0.1436 - val_MAE: 0.2274 - lr: 1.9657e-05[32m [repeated 2x across cluster][0m
…
[2m[36m(train pid=14065)[0m INFO:root:_________________________________________________________________
[2m[36m(train pid=14065)[0m INFO:root:Layer (type)                 Output Shape              Param #   
[2m[36m(train pid=14065)[0m INFO:root:=================================================================
[2m[36m(train pid=14065)[0m INFO:root:input_1 (InputLayer)         [(None, 2, 294)]          0         
[2m[36m(train pid=14065)[0m INFO:root:_________________________________________________________________
[2m[36m(train pid=14065)[0m INFO:root:rnn_cell_1 (RNN)             (None, 2, 64)             69120     
[2m[36m(train pid=14065)[0m INFO:root:_________________________________________________________________
[2m[36m(train pid=14065)[0m INFO:root:dropout (Dropout)            (None, 2, 64)             0         
[2m[36m(train pid=14065)[0m INFO:root:_________________________________________________________________
[2m[36m(train pid=14065)[0m INFO:root:rnn_cell_2 (RNN)             (None, 2, 64)             24960     
[2m[36m(train pid=14065)[0m INFO:root:_________________________________________________________________
[2m[36m(train pid=14065)[0m INFO:root:dropout_1 (Dropout)          (None, 2, 64)             0         
[2m[36m(train pid=14065)[0m INFO:root:_________________________________________________________________
[2m[36m(train pid=14065)[0m INFO:root:rnn_cell_3 (RNN)             (None, 2, 64)             24960     
[2m[36m(train pid=14065)[0m INFO:root:_________________________________________________________________
[2m[36m(train pid=14065)[0m INFO:root:dropout_2 (Dropout)          (None, 2, 64)             0         
[2m[36m(train pid=14065)[0m INFO:root:_________________________________________________________________
[2m[36m(train pid=14065)[0m INFO:root:flatten (Flatten)            (None, 128)               0         
[2m[36m(train pid=14065)[0m INFO:root:_________________________________________________________________
[2m[36m(train pid=14065)[0m INFO:root:dense (Dense)                (None, 193)               24897     
[2m[36m(train pid=14065)[0m INFO:root:_________________________________________________________________
[2m[36m(train pid=14065)[0m INFO:root:activation (Activation)      (None, 193)               0         
[2m[36m(train pid=14065)[0m INFO:root:_________________________________________________________________

Trial rnn_pronostia_b1b8fecb finished iteration 6 at 2023-11-16 13:50:17. Total running time: 44min 58s
+-------------------------------------------------+
| Trial rnn_pronostia_b1b8fecb result             |
+-------------------------------------------------+
| checkpoint_dir_name                             |
…
| lstm_units                                          85.18392 |
| min_score                                                 15 |
| nblocks                                              3.45795 |
| net                                                      rnn |
| timeout                                                10800 |
| train_verbose                                           True |
| window                                             304.68316 |
| working_dir                             ...s/rul_stacked/src |
+--------------------------------------------------------------+
[2m[36m(train pid=14065)[0m INFO:root:dropout_3 (Dropout)          (None, 193)               0         
[2m[36m(train pid=14065)[0m INFO:root:_________________________________________________________________
[2m[36m(train pid=14065)[0m INFO:root:dense_1 (Dense)              (None, 100)               19400     
[2m[36m(train pid=14065)[0m INFO:root:_________________________________________________________________
[2m[36m(train pid=14065)[0m INFO:root:activation_1 (Activation)    (None, 100)               0         
[2m[36m(train pid=14065)[0m INFO:root:_________________________________________________________________
[2m[36m(train pid=14065)[0m INFO:root:dropout_4 (Dropout)          (None, 100)               0         
[2m[36m(train pid=14065)[0m INFO:root:_________________________________________________________________
[2m[36m(train pid=14065)[0m INFO:root:predictions (Dense)          (None, 1)                 101       
[2m[36m(train pid=14065)[0m INFO:root:=================================================================
[2m[36m(train pid=14065)[0m INFO:root:Total params: 163,438
[2m[36m(train pid=14065)[0m INFO:root:Trainable params: 163,438
[2m[36m(train pid=14065)[0m INFO:root:Non-trainable params: 0
[2m[36m(train pid=14065)[0m INFO:root:_________________________________________________________________
…
[2m[36m(train pid=17527)[0m INFO:root:_________________________________________________________________
[2m[36m(train pid=17527)[0m INFO:root:Layer (type)                 Output Shape              Param #   
[2m[36m(train pid=17527)[0m INFO:root:=================================================================
[2m[36m(train pid=17527)[0m INFO:root:input_1 (InputLayer)         [(None, 2, 293)]          0         
[2m[36m(train pid=17527)[0m INFO:root:_________________________________________________________________
[2m[36m(train pid=17527)[0m INFO:root:bidirectional (Bidirectional (None, 2, 128)            183296    
[2m[36m(train pid=17527)[0m INFO:root:_________________________________________________________________
[2m[36m(train pid=17527)[0m INFO:root:dropout (Dropout)            (None, 2, 128)            0         
[2m[36m(train pid=17527)[0m INFO:root:_________________________________________________________________
[2m[36m(train pid=17527)[0m INFO:root:bidirectional_1 (Bidirection (None, 2, 128)            98816     
[2m[36m(train pid=17527)[0m INFO:root:_________________________________________________________________
[2m[36m(train pid=17527)[0m INFO:root:dropout_1 (Dropout)          (None, 2, 128)            0         
[2m[36m(train pid=17527)[0m INFO:root:_________________________________________________________________
[2m[36m(train pid=17527)[0m INFO:root:flatten (Flatten)            (None, 256)               0         
[2m[36m(train pid=17527)[0m INFO:root:_________________________________________________________________
[2m[36m(train pid=17527)[0m INFO:root:dense (Dense)                (None, 183)               47031     
[2m[36m(train pid=17527)[0m INFO:root:_________________________________________________________________
[2m[36m(train pid=17527)[0m INFO:root:activation (Activation)      (None, 183)               0         
[2m[36m(train pid=17527)[0m INFO:root:_________________________________________________________________
[2m[36m(train pid=17527)[0m INFO:root:dropout_2 (Dropout)          (None, 183)               0         
[2m[36m(train pid=17527)[0m INFO:root:_________________________________________________________________
[2m[36m(train pid=17527)[0m INFO:root:dense_1 (Dense)              (None, 100)               18400     
[2m[36m(train pid=17527)[0m INFO:root:_________________________________________________________________
[2m[36m(train pid=17527)[0m INFO:root:activation_1 (Activation)    (None, 100)               0         
[2m[36m(train pid=17527)[0m INFO:root:_________________________________________________________________
[2m[36m(train pid=17527)[0m INFO:root:dropout_3 (Dropout)          (None, 100)               0         
[2m[36m(train pid=17527)[0m INFO:root:_________________________________________________________________
[2m[36m(train pid=17527)[0m INFO:root:predictions (Dense)          (None, 1)                 101       
[2m[36m(train pid=17527)[0m INFO:root:=================================================================
[2m[36m(train pid=17527)[0m INFO:root:Total params: 347,644
[2m[36m(train pid=17527)[0m INFO:root:Trainable params: 347,644
[2m[36m(train pid=17527)[0m INFO:root:Non-trainable params: 0
[2m[36m(train pid=17527)[0m INFO:root:_________________________________________________________________
…
[2m[36m(train pid=18128)[0m INFO:root:_________________________________________________________________
[2m[36m(train pid=18128)[0m INFO:root:Layer (type)                 Output Shape              Param #   
[2m[36m(train pid=18128)[0m INFO:root:=================================================================
[2m[36m(train pid=18128)[0m INFO:root:input_1 (InputLayer)         [(None, 2, 305)]          0         
[2m[36m(train pid=18128)[0m INFO:root:_________________________________________________________________
[2m[36m(train pid=18128)[0m INFO:root:bidirectional (Bidirectional (None, 2, 128)            189440    
[2m[36m(train pid=18128)[0m INFO:root:_________________________________________________________________
[2m[36m(train pid=18128)[0m INFO:root:batch_normalization (BatchNo (None, 2, 128)            512       
[2m[36m(train pid=18128)[0m INFO:root:_________________________________________________________________
[2m[36m(train pid=18128)[0m INFO:root:dropout (Dropout)            (None, 2, 128)            0         
[2m[36m(train pid=18128)[0m INFO:root:_________________________________________________________________
[2m[36m(train pid=18128)[0m INFO:root:bidirectional_1 (Bidirection (None, 2, 128)            98816     
[2m[36m(train pid=18128)[0m INFO:root:_________________________________________________________________
[2m[36m(train pid=18128)[0m INFO:root:batch_normalization_1 (Batch (None, 2, 128)            512       
[2m[36m(train pid=18128)[0m INFO:root:_________________________________________________________________
[2m[36m(train pid=18128)[0m INFO:root:dropout_1 (Dropout)          (None, 2, 128)            0         
[2m[36m(train pid=18128)[0m INFO:root:_________________________________________________________________
[2m[36m(train pid=18128)[0m INFO:root:bidirectional_2 (Bidirection (None, 2, 128)            98816     
[2m[36m(train pid=18128)[0m INFO:root:_________________________________________________________________
[2m[36m(train pid=18128)[0m INFO:root:batch_normalization_2 (Batch (None, 2, 128)            512       
[2m[36m(train pid=18128)[0m INFO:root:_________________________________________________________________
[2m[36m(train pid=18128)[0m INFO:root:dropout_2 (Dropout)          (None, 2, 128)            0         
[2m[36m(train pid=18128)[0m INFO:root:_________________________________________________________________
[2m[36m(train pid=18128)[0m INFO:root:self_attention (SelfAttentio (None, 128)               130       
[2m[36m(train pid=18128)[0m INFO:root:_________________________________________________________________
[2m[36m(train pid=18128)[0m INFO:root:dropout_3 (Dropout)          (None, 128)               0         
[2m[36m(train pid=18128)[0m INFO:root:_________________________________________________________________
[2m[36m(train pid=18128)[0m INFO:root:flatten (Flatten)            (None, 128)               0         
[2m[36m(train pid=18128)[0m INFO:root:_________________________________________________________________
[2m[36m(train pid=18128)[0m INFO:root:dense (Dense)                (None, 178)               22962     
[2m[36m(train pid=18128)[0m INFO:root:_________________________________________________________________
[2m[36m(train pid=18128)[0m INFO:root:activation (Activation)      (None, 178)               0         
[2m[36m(train pid=18128)[0m INFO:root:_________________________________________________________________
[2m[36m(train pid=18128)[0m INFO:root:dropout_4 (Dropout)          (None, 178)               0         
[2m[36m(train pid=18128)[0m INFO:root:_________________________________________________________________
[2m[36m(train pid=18128)[0m INFO:root:dense_1 (Dense)              (None, 100)               17900     
[2m[36m(train pid=18128)[0m INFO:root:_________________________________________________________________
[2m[36m(train pid=18128)[0m INFO:root:activation_1 (Activation)    (None, 100)               0         
[2m[36m(train pid=18128)[0m INFO:root:_________________________________________________________________
[2m[36m(train pid=18128)[0m INFO:root:dropout_5 (Dropout)          (None, 100)               0         
[2m[36m(train pid=18128)[0m INFO:root:_________________________________________________________________
[2m[36m(train pid=18128)[0m INFO:root:predictions (Dense)          (None, 1)                 101       
[2m[36m(train pid=18128)[0m INFO:root:=================================================================
[2m[36m(train pid=18128)[0m INFO:root:Total params: 429,701
[2m[36m(train pid=18128)[0m INFO:root:Trainable params: 428,933
[2m[36m(train pid=18128)[0m INFO:root:Non-trainable params: 768
[2m[36m(train pid=18128)[0m INFO:root:_________________________________________________________________
…
| lstm_units                                         126.88295 |
| min_score                                                 15 |
| nblocks                                               4.4442 |
| net                                                      rnn |
| timeout                                                10800 |
| train_verbose                                           True |
| window                                             180.55665 |
| working_dir                             ...s/rul_stacked/src |
+--------------------------------------------------------------+
[2m[36m(train pid=17527)[0m INFO:root:bidirectional_1 (Bidirection (None, 2, 128)            98816     
[2m[36m(train pid=17527)[0m INFO:root:_________________________________________________________________
[2m[36m(train pid=17527)[0m INFO:root:dropout_1 (Dropout)          (None, 2, 128)            0         
[2m[36m(train pid=17527)[0m INFO:root:_________________________________________________________________
[2m[36m(train pid=17527)[0m INFO:root:flatten (Flatten)            (None, 256)               0         
[2m[36m(train pid=17527)[0m INFO:root:_________________________________________________________________
[2m[36m(train pid=17527)[0m INFO:root:dense (Dense)                (None, 183)               47031     
[2m[36m(train pid=17527)[0m INFO:root:_________________________________________________________________
[2m[36m(train pid=17527)[0m INFO:root:activation (Activation)      (None, 183)               0         
[2m[36m(train pid=17527)[0m INFO:root:_________________________________________________________________
[2m[36m(train pid=17527)[0m INFO:root:dropout_2 (Dropout)          (None, 183)               0         
[2m[36m(train pid=17527)[0m INFO:root:_________________________________________________________________
[2m[36m(train pid=17527)[0m INFO:root:dense_1 (Dense)              (None, 100)               18400     
[2m[36m(train pid=17527)[0m INFO:root:_________________________________________________________________
[2m[36m(train pid=17527)[0m INFO:root:activation_1 (Activation)    (None, 100)               0         
[2m[36m(train pid=17527)[0m INFO:root:_________________________________________________________________
[2m[36m(train pid=17527)[0m INFO:root:dropout_3 (Dropout)          (None, 100)               0         
[2m[36m(train pid=17527)[0m INFO:root:_________________________________________________________________
[2m[36m(train pid=17527)[0m INFO:root:predictions (Dense)          (None, 1)                 101       
[2m[36m(train pid=17527)[0m INFO:root:=================================================================
[2m[36m(train pid=17527)[0m INFO:root:Total params: 347,644
[2m[36m(train pid=17527)[0m INFO:root:Trainable params: 347,644
[2m[36m(train pid=17527)[0m INFO:root:Non-trainable params: 0
[2m[36m(train pid=17527)[0m INFO:root:_________________________________________________________________
…
